weights/checkpoint_actor.pth (torch, 25957 bytes, 6 tensors)

fc1.weight f4 [64, 24]
-0.05709142 -0.044306986 -0.057221983 -0.31673068 0.1445149 -0.22184457 0.014988798 -0.2959703
0.0861242 -0.13210402 0.0020240492 0.030733509 0.25473624 -0.04288 -0.020208353 -0.036751106
0.06342939 -0.39728263 0.028534375 -0.17490958 0.29065552 0.4259167 -0.013192329 -0.092425555
0.04503298 -0.19980712 0.085598834 0.044915948 -0.090163924 -0.12482462 0.11083862 0.0882423
-0.032968894 -0.13442136 0.09891498 0.19566949 0.04287555 -0.1140293 0.073367074 0.20467788
0.09956208 -0.051200483 0.054750424 0.20344613 -0.016492119 -0.1396301 0.085570164 0.105058976
0.014516351 -0.07894933 0.037230548 0.14464985 0.07207151 0.19601946 -0.039729975 0.03439099
-0.06670228 -0.018437512 0.051245153 0.00555468 0.11715409 0.13488688 0.06922161 0.24126528
-0.055679813 0.076935895 0.07280482 0.09803058 -0.101490594 0.25901464 -0.088669404 0.1315383
0.121896416 0.02115804 0.093008645 0.014384488 -0.19152892 -0.2190661 0.10547156 -0.013818466
-0.11268425 -0.09094488 -0.027311362 0.06600533 -0.105583794 -0.067573264 0.014800297 0.010065248
-0.1550067 -0.22770606 0.016360836 0.060995106 -0.021262992 -0.08473522 0.021579705 0.058837958
-0.21068273 0.008675896 -0.056925993 -0.0023623658 -0.011029613 -0.1301661 0.13109945 0.039650526
-0.22733556 0.16167386 0.16052341 -0.16706313 0.16248311 -0.073501885 -0.029215688 0.054005306
-0.13502975 -0.13101588 -0.061158255 -0.12203683 0.0778316 0.046785545 0.14744858 -0.18402846
-0.09019953 0.23006983 -0.08839937 0.10601759 -0.14905608 0.06863297 -0.10711885 0.1836526
-0.05763098 0.36301443 0.1256271 0.1662264 0.105693005 0.050131585 0.12533586 0.16853431
-0.036815878 0.37312132 -0.06958795 0.14044312 -0.065220796 -0.05138584 0.075607814 0.0747699
-0.050647017 -0.17705949 0.09528672 0.007431458 0.25592446 0.014833038 -0.10278431 0.008510552
-0.046579834 -0.104593 -0.06975713 0.07542886 -0.03341665 0.21908136 0.06870533 0.07565925
-0.08604628 -0.08557789 0.049950175 -0.03694542 0.07866984 0.34152913 -0.060500138 -0.15739793
-0.050731722 -0.0021147726 -0.081183404 -0.12134228 -0.009786839 -0.03937059 0.07264553 -0.038454566
-0.06924161 -0.20645359 -0.007303698 0.08388722 0.06315142 0.09716146 -0.08515738 0.024143832
-0.007973319 -0.08869917 0.12211967 0.078725725 0.079069875 0.036618896 0.05543759 0.2129528
0.09402627 -0.28517225 -0.12772241 -0.2794425 -0.10011039 0.010177978 -0.024435446 -0.17118463
-0.104469284 -0.36066645 0.0028577547 0.043312978 0.01585804 -0.013740156 0.1401069 -0.14049876
0.023294043 -0.24280278 0.07652758 0.07730055 0.29795912 0.00021377187 -0.14023879 -0.08564544
-0.0018718237 -0.18951114 0.03968535 -0.1768033 -0.077788375 0.04644429 -0.015126887 0.047866926
-0.052533418 -0.10369649 0.07018719 0.10371582 -0.042021677 -0.09838415 0.09136939 -0.04469172
0.1719992 -0.26649457 -0.022775717 0.06353878 -0.019853052 -0.18557607 -0.019440694 0.21879737
-0.038592644 -0.15605721 0.07257521 -0.0006273461 0.0066786543 0.07277931 -0.10302586 -0.21256733
-0.008418476 0.015805675 -0.0051168855 -0.09861099 -0.2133452 0.15213402 0.15048042 -0.19515966
00000000: b1d8 69bd 3e7b 35bd 9961 6abd 862a a2be
00000010: b7fb 133e 392b 63be 9393 753c 6b89 97be
00000020: e261 b03d 4746 07be e9a5 043b d7c4 fb3c
00000030: ca6c 823e f0a2 2fbd fd8b a5bc 5488 16bd
00000040: 45e7 813d a168 cbbe ecc0 e93c 7f1b 33be
00000050: cdd0 943e c111 da3e a324 58bc 9c49 bdbd
00000060: 8174 383d 3d9a 4cbe 714e af3d c9f9 373d
00000070: dda7 b8bd 0da4 ffbd 5cff e23d 61b8 b43d
00000080: 640a 07bd c1a5 09be f093 ca3d 955d 483e
00000090: 469e 2f3d 3288 e9bd 7a41 963d 1497 513e
000000a0: 34e7 cb3d 99b7 51bd fb41 603d 2f54 503e
000000b0: 7b1a 87bc 31fb 0ebe 693f af3d 2929 d73d
000000c0: fdd5 6d3c 30b0 a1bd 0f7f 183d 171f 143e
000000d0: 3a9a 933d 53b9 483e e6bb 22bd 91dd 0c3d
000000e0: 349b 88bd 440a 97bc 70e6 513d 0804 b63b
000000f0: 7cee ef3d c91f 0a3e 0fc4 8d3d 3f0e 773e
00000100: 8410 64bd 9190 9d3d b21a 953d 42c4 c83d
00000110: 4dda cfbd 919d 843e 4e98 b5bd fab1 063e
00000120: d4a4 f93d a053 ad3c 517b be3d eaac 6b3c
00000130: 2820 44be dd52 60be 7901 d83d d966 62bc
00000140: 00c7 e6bd 4f41 babd 14bc dfbc cd2d 873d
00000150: 513c d8bd da63 8abd f27c 723c b6e8 243c
00000160: 14ba 1ebe c72b 69be 2907 863c 01d6 793d
00000170: ba2f aebc a989 adbd ecc7 b03c 1200 713d
00000180: 37bd 57be 5825 0e3c 3b2b 69bd ecd1 1abb
00000190: 8db5 34bc 434a 05be ef3e 063e 9768 223d
000001a0: a7ca 68be d58d 253e 4060 243e 9912 2bbe
000001b0: f961 263e 2888 96bd bd55 efbc ab34 5d3d
000001c0: 3d45 0abe 0729 06be 1481 7abd 72ee f9bd
000001d0: 2d66 9f3d 33a2 3f3d c3fc 163e f571 3cbe
000001e0: 88ba b8bd 6d97 6b3e bb0a b5bd c01f d93d
000001f0: 28a2 18be 718f 8c3d 2161 dbbd 6d0f 3c3e
00000200: 760e 6cbd 07dd b93e 64a4 003e 4137 2a3e
00000210: 9375 d83d c756 4d3d 0b58 003e 4294 2c3e
00000220: 3fcc 16bd c209 bf3e 2184 8ebd 52d0 0f3e
00000230: 7b92 85bd f579 52bd 45d8 9a3d f620 993d
00000240: 3f73 4fbd 154f 35be af25 c33d 9783 f33b
00000250: 8808 833e 4506 733c 9580 d2bd d86f 0b3c
00000260: 7fca 3ebd db34 d6bd d4dc 8ebd 727a 9a3d
00000270: e6df 08bd dd56 603e 61b5 8c3d 3df3 9a3d
00000280: 0839 b0bd 7643 afbd 8e98 4c3d 1554 17bd
00000290: a71d a13d e8dc ae3e fece 77bd ec2c 21be
000002a0: 11cc 4fbd ff97 0abb 7c43 a6bd 4d82 f8bd
000002b0: fa58 20bc 0e43 21bd 2ec7 943d 8982 1dbd
000002c0: 8cce 8dbd 9268 53be dc53 efbb 10cd ab3d
000002d0: 8855 813d 96fc c63d fe66 aebd 49c9 c53c
000002e0: 86a2 02bc e9a7 b5bd e119 fa3d f43a a13d
000002f0: 63ef a13d b2fd 153d 8712 633d 4c10 5a3e
00000300: d890 c03d 1902 92be aac9 02be 1613 8fbe
00000310: ad06 cdbd 89c1 263c d82c c8bc 064b 2fbe
00000320: fef3 d5bd 46a9 b8be 2b49 3b3b f368 313d
00000330: b8e8 813c 641e 61bc 2f78 0f3e e8de 0fbe
00000340: 26d3 be3c 4ba1 78be 7eba 9c3d c04f 9e3d
00000350: 198e 983e f327 6039 c29a 0fbe e066 afbd
00000360: fb57 f5ba 350f 42be 1b8d 223d ed0b 35be
00000370: 834f 9fbd 5e3c 3e3d c3d6 77bc 1c10 443d
00000380: 482d 57bd d35e d4bd 4dbe 8f3d f668 d43d
00000390: ec1e 2cbd a17d c9bd e01f bb3d aa0e 37bd
000003a0: 8f20 303e fa71 88be 2494 babc 9f20 823d
000003b0: dea2 a2bc a707 3ebe 1742 9fbc 6b0c 603e
000003c0: 5213 1ebd 76cd 1fbe 50a2 943d 7c74 24ba
000003d0: 9dd8 da3b 520d 953d 39ff d2bd 40ab 59be
000003e0: a6ed 09bc e77a 813c 8cab a7bb 8ff4 c9bd
000003f0: 2a77 5abe 05c9 1b3e 8a17 1a3e efd7 47be

fc1.bias f4 [64]
0.051888235 -0.0828786 0.1417467 -0.093451545 0.17345157 -0.1789529 -0.14986993 -0.015525351
0.33226186 0.07209689 -0.10177417 -0.19533855 0.2318733 0.29984054 -0.1543365 0.122818656
0.10156358 -0.01750674 0.010956285 0.1084233 0.13665533 0.10354627 0.3105446 0.28162596
-0.11876267 -0.23096892 -0.17092663 0.10524075 -0.076923706 0.4231426 -0.00423387 0.19282591
0.01231853 0.20371404 0.163593 0.09117439 -0.15575816 0.04602876 0.11902761 -0.12243668
-0.06642121 0.11881695 -0.07025161 0.3024542 0.03282877 0.13890338 0.14800766 0.14474116
0.34817275 0.21337079 -0.028240869 0.09087219 0.045313723 -0.10552859 0.38817585 -0.004758126
0.08986336 0.06407857 -0.0036808173 0.30349657 0.009122447 0.059088122 -0.13799143 -0.053694062
00000000: c288 543d 41bc a9bd 0c26 113e 8663 bfbd
00000010: 4a9d 313e 6e3f 37be 8177 19be 0b5e 7ebc
00000020: 3a1e aa3e 89a7 933d fa6e d0bd d406 48be
00000030: 3270 6d3e b384 993e 630a 1ebe 5988 fb3d
00000040: 9100 d03d 4b6a 8fbc fd81 333c 090d de3d
00000050: 60ef 0b3e 1110 d43d b4ff 9e3e 4731 903e
00000060: d839 f3bd 1e83 6cbe 6407 2fbe 7688 d73d
00000070: 2d8a 9dbd 26a6 d83e 47bc 8abb 2874 453e
00000080: a9d3 493c 6a9a 503e ec84 273e a3b9 ba3d
00000090: 117f 1fbe a788 3c3d bfc4 f33d 15c0 fabd
000000a0: d807 88bd 4d56 f33d 13e0 8fbd 47db 9a3e
000000b0: 7677 063d b03c 0e3e 528f 173e 0737 143e
000000c0: b343 b23e df7d 5a3e 6559 e7bc 331b ba3d
000000d0: e29a 393d 601f d8bd fcbe c63e 0eea 9bbb
000000e0: 480a b83d a03b 833d de39 71bb e763 9b3e
000000f0: 5176 153c 6306 723d a04d 0dbe 4eee 5bbd

fc2.weight f4 [64, 64]
0.19876659 -0.023093645 -0.045872282 -0.060797002 0.055091042 -0.099732466 0.21480235 -0.020471683
0.21228309 0.023719683 0.10462027 -0.17638667 0.07146484 -0.20728025 0.04623369 -0.23346348
-0.014889513 0.13323094 -0.115737535 0.16211799 -0.021819323 -0.14106414 -0.33363006 0.2926859
-0.14559759 -0.13065606 -0.10569134 -0.14001468 0.113888286 0.036812697 -0.05716305 -0.40135145
0.081309244 -0.07811695 -0.10610841 -0.12740952 -0.06913108 0.09002795 0.030979762 -0.061984822
0.10258327 0.06399834 0.021054346 -0.076032616 0.2577468 -0.003493049 -0.34182474 0.07413466
-0.017832434 -0.10861124 -0.023306364 0.047625598 -0.15075566 0.010137659 -0.15052593 -0.15829863
0.02427294 0.111213565 0.00042068286 0.072635606 0.117225364 -0.06231395 0.2233832 0.27328163
0.22999138 -0.075771905 -0.06556219 0.13135977 0.18488269 0.14560156 -0.15271166 0.049388185
0.17973596 -0.09650489 0.044123784 -0.047800697 -0.13221234 0.08163561 -0.040057052 0.016776294
-0.23391886 0.28730148 0.08697069 -0.10369204 0.12124919 -0.020067273 0.2067079 -0.054986045
0.16051209 0.11753465 -0.12835619 0.084640406 0.20661093 -0.09631301 0.06623666 0.023030939
-0.016003659 0.030711863 0.05246723 0.12948877 -0.08382538 -0.049277186 0.049508408 0.13998385
0.18133982 0.12397073 0.059216324 0.0925904 0.041763384 0.1317181 0.22812872 0.12146295
0.15363479 0.08315052 0.17271614 0.099747516 -0.077021144 0.17723663 -0.25431132 0.12330864
0.22981334 0.06938961 0.10775173 -0.0804277 0.07813042 -0.07302457 0.068323605 0.17977905
-0.049741443 -0.27353445 -0.034884885 0.09192785 -0.037330948 -0.066091195 0.040525038 -0.08205201
0.22793949 -0.021858722 0.13382943 0.0109973205 0.042770524 -0.072351 0.15493724 0.045027297
0.13861085 0.11702763 0.033351697 -0.035986483 -0.053957753 -0.1672904 0.07965912 -0.034663886
0.019098751 -0.1145302 0.012799588 0.057244085 -0.13176008 0.17263778 0.043578804 -0.04697184
0.33861858 0.02914415 -0.072391845 -0.017144222 -0.013666985 -0.071350165 -0.03601234 -0.055013623
-0.032187738 -0.032381635 -0.29263538 -0.027640646 0.07481355 -0.123194225 0.050619606 -0.0587675
0.0047664596 -0.031358495 0.033897668 0.20275924 -0.038932566 -0.1919325 0.26689103 0.03673658
-0.330967 0.11643338 -0.038723394 0.13602369 0.07485244 0.06711512 0.05606792 0.1435455
0.2141036 -0.0054109404 -0.048589345 0.099188 -0.0072206035 -0.024207449 -0.1000277 0.018986356
-0.100744575 0.023404794 0.021353405 -0.07981525 0.07400821 0.1607844 0.13026847 -0.053859767
-0.27174655 0.11268959 -0.08265889 0.050882727 0.08739995 0.16853423 0.08221155 0.08533747
0.09461619 0.13910747 0.09123763 0.04792482 0.07642356 0.038723044 -0.08457824 -0.01964045
-0.29542914 0.06275669 0.0046809525 0.13906 -0.0013199181 0.18239185 0.05790988 0.10685691
-0.044440683 -0.0075139976 0.13312994 0.15019503 -0.16650511 0.22150853 0.2161009 -0.032937113
0.10826638 -0.13359186 0.08115092 -0.035132084 -0.03445848 0.09563509 -0.41957814 0.17004474
0.028687486 0.08447375 0.13959561 -0.023460897 0.11519505 0.03304808 0.05144784 0.05805606
00000000: 7889 4b3e e22e bdbc 93e4 3bbd 4706 79bd
00000010: 25a7 613d 8940 ccbd 26f5 5b3e 3bb4 a7bc
00000020: bd60 593e c84f c23c 2743 d63d b59e 34be
00000030: 285c 923d 4641 54be 8a5f 3d3d 0d11 6fbe
00000040: 25f3 73bc b16d 083e cd07 edbd 4202 263e
00000050: 70be b2bc 1e73 10be 8fd1 aabe edda 953e
00000060: 8917 15be b4ca 05be b474 d8bd 0260 0fbe
00000070: 433e e93d e9c8 163d cd23 6abd f07d cdbe
00000080: 7685 a63d c8fb 9fbd 5e4f d9bd a477 02be
00000090: 9894 8dbd 9360 b83d 45c9 fd3c cce3 7dbd
000000a0: 2d17 d23d 9011 833d 2a7a ac3c fdb6 9bbd
000000b0: 63f7 833e a3eb 64bb a703 afbe ead3 973d
000000c0: 5315 92bc 926f debd fdec bebc 0f13 433d
000000d0: b15f 1abe 6c18 263c 7823 1abe 0919 22be
000000e0: 0bd8 c63c f0c3 e33d 198f dc39 fac1 943d
000000f0: da13 f03d ea3c 7fbd 91be 643e 92eb 8b3e
00000100: dc82 6b3e 4d2e 9bbd 7845 86bd 2d83 063e
00000110: e351 3d3e 9318 153e 7260 1cbe 444b 4a3d
00000120: b40c 383e 5ba4 c5bd 24bb 343d aaca 43bd
00000130: ac62 07be 9230 a73d dd12 24bd 706e 893c
00000140: 6d88 6fbe 2e19 933e b01d b23d 7e5c d4bd
00000150: 7f51 f83d 1f64 a4bc 3cab 533e 0c39 61bd
00000160: 485d 243e 02b6 f03d ce6f 03be f357 ad3d
00000170: d191 533e c13f c5bd 16a7 873d 61ab bc3c
00000180: 1b1a 83bc 7297 fb3c e1e7 563d b498 043e
00000190: a4ac abbd e0d6 49bd 54c9 4a3d ed57 0f3e
000001a0: 25b1 393e 5ee4 fd3d d18c 723d 09a0 bd3d
000001b0: 1510 2b3d 1ce1 063e 939a 693e 91c1 f83d
000001c0: 7052 1d3e d24a aa3d 80dc 303e 6d48 cc3d
000001d0: 43bd 9dbd 857d 353e 1835 82be 3e89 fc3d
000001e0: 3054 6b3e 241c 8e3d f0ac dc3d 47b7 a4bd
000001f0: d702 a03d e88d 95bd 3fed 8b3d 0018 383e
00000200: afbd 4bbd b50c 8cbe 74e3 0ebd ab44 bc3d
00000210: 56e8 18bd d25a 87bd 95fd 253d e20a a8bd
00000220: f868 693e 1011 b3bc 950a 093e 1b2e 343c
00000230: 2530 2f3d c32c 94bd dea7 1e3e 8b6e 383d
00000240: 01f0 0d3e 2fac ef3d ca9b 083d 9066 13bd
00000250: ce02 5dbd 2d4e 2bbe 5224 a33d b8fb 0dbd
00000260: fc74 9c3c cf8e eabd 5db5 513c c678 6a3d
00000270: 1dec 06be f5c7 303e b07f 323d 8b65 40bd
00000280: 6a5f ad3e b6bf ee3c 2d42 94bd 0a72 8cbc
00000290: 7deb 5fbc 0920 92bd ad81 13bd f755 61bd
000002a0: 4ad7 03bd 9ba2 04bd 4ed4 95be a36e e2bc
000002b0: d937 993d 414d fcbd 8156 4f3d 31b6 70bd
000002c0: f62f 9c3b c471 00bd 48d8 0a3d 1ea0 4f3e
000002d0: c177 1fbd f489 44be f1a5 883e 1979 163d
000002e0: 8274 a9be a074 ee3d 6c9c 1ebd cb49 0b3e
000002f0: 3c4c 993d a773 893d 7aa7 653d 97fd 123e
00000300: f93d 5b3e 424e b1bb 9f05 47bd 1423 cb3d
00000310: d09a ecbb b34e c6bc 53db ccbd 4689 9b3c
00000320: 2c53 cebd 69bb bf3c 56ed ae3c 2e76 a3bd
00000330: 9e91 973d aaa4 243e 1965 053e 0f9c 5cbd
00000340: 5d22 8bbe cdc9 e63d 1049 a9bd 686a 503d
00000350: bffe b23d 3d94 2c3e 875e a83d 69c5 ae3d
00000360: 22c6 c13d 3072 0e3e cbda ba3d d14c 443d
00000370: f583 9c3d 0e9c 1e3d 5b37 adbd 02e5 a0bc
00000380: 7d42 97be 9486 803d ad62 993b bf65 0e3e
00000390: 1a01 adba eec4 3a3e e932 6d3d ccd7 da3d
000003a0: 6f07 36bd fb37 f6bb 3753 083e bacc 193e
000003b0: 5180 2abe 22d3 623e 8e49 5d3e 11e9 06bd
000003c0: c4ba dd3d 4ecc 08be 7432 a63d a9e6 0fbd
000003d0: 5624 0dbd 54dc c33d f2d2 d6be 3520 2e3e
000003e0: 0502 eb3c 9300 ad3d 27f2 0e3e 1131 c0bc
000003f0: 62eb eb3d 6c5d 073d f8ba 523d 31cc 6d3d

fc2.bias f4 [64]
-0.22942013 0.06285067 0.14702848 0.020258557 0.20610152 0.18456039 -0.0297091 0.15482245
0.033898257 -0.03420044 0.060919974 -0.007753164 0.061357528 -0.13507658 0.048846815 0.041220643
0.068552926 -0.1870456 -0.06549587 0.02571856 0.06354531 -0.05069599 0.05552757 -0.0507236
0.11697605 0.17297566 0.11736349 0.1493067 0.0940515 -0.060550563 -0.04077703 0.20350535
0.031960722 0.035406936 0.09700724 0.10639183 0.016823407 -0.017758425 0.13751318 -0.16883534
0.054535728 0.12043125 -0.060307 -0.11545171 -0.015095707 0.121964745 0.13578306 0.14655851
-0.28225902 -0.11778365 -0.075930424 0.0032927708 0.06470688 -0.01888095 0.0036968275 0.09620041
0.025469273 0.009460586 -0.038019974 0.22089164 0.0026909877 0.049670875 0.21725781 0.11579918
00000000: 1ced 6abe dab7 803d a28e 163e 46f5 a53c
00000010: 470c 533e 66fd 3c3e 8060 f3bc c789 1e3e
00000020: e6d8 0a3d c315 0cbd 3987 793d 410e febb
00000030: 0852 7b3d 8451 0abe 9913 483d fad6 283d
00000040: 7a65 8c3d e288 3fbe b322 86bd bbaf d23c
00000050: 0b24 823d 99a6 4fbd e170 633d 8dc3 4fbd
00000060: 2491 ef3d 8820 313e 455c f03d dbe3 183e
00000070: 139e c03d de03 78bd d105 27bd b563 503e
00000080: 3fe9 023d dd06 113d bbab c63d f6e3 d93d
00000090: 3ed1 893c 1e7a 91bc 41d0 0c3e 2ce3 2cbe
000000a0: db60 5f3d a9a4 f63d 7904 77bd f271 ecbd
000000b0: fc53 77bc a7c8 f93d b70a 0b3e 6f13 163e
000000c0: 4184 90be 8e38 f1bd 6981 9bbd 87cb 573b
000000d0: 0a85 843d 39ac 9abc 7946 723b b804 c53d
000000e0: f0a4 d03c 9300 1b3c d5ba 1bbd 6b31 623e
000000f0: 485b 303b b073 4b3d d578 5e3e 1f28 ed3d

fc3.weight f4 [2, 64]
0.38366577 0.047040835 -0.031448394 0.053848635 -0.019992609 0.21241482 0.03994434 -0.13376305
-0.12095854 0.04430854 0.014095707 -0.10072059 -0.08317284 0.0075268173 -0.16595268 -0.08201199
-0.38357434 0.022135532 -0.223781 -0.25245157 -0.15867715 -0.105751134 0.02397967 -0.074357286
-0.14566725 0.04967326 0.22978088 0.06187109 -0.16637376 -0.10361516 -0.12285031 -0.028874515
-0.080215834 -0.09060616 -0.08058216 -0.095049016 0.11199239 -0.095093325 -0.09630844 0.004076834
-0.061913215 0.2967719 -0.12588175 -0.18131478 -0.25661707 0.04352042 -0.19741204 -0.18143559
-0.022786124 -0.24260429 -0.30725417 -0.0558257 -0.06265889 -0.11001884 0.027320527 0.04105308
-0.08632245 -0.13504483 0.1783089 0.051459942 -0.279654 0.033790883 -0.047899183 0.03923873
-0.1684734 -0.0218024 -0.15096197 0.059806284 -0.45149052 -0.14966501 0.011357127 -0.44978034
-0.049132936 0.009666495 0.009504756 0.15468025 -0.058129746 0.056962147 0.16711049 -0.029381974
-0.44469768 0.092137866 0.18193279 0.09774025 -0.26363254 0.0038317237 -0.015380425 0.11558193
0.044769704 0.009494811 -0.11761687 0.035722297 0.010705339 -0.019749438 0.18232626 -0.23986003
-0.01424361 -0.049369793 -0.09973643 -0.096729994 -0.06442452 -0.08821965 0.01006913 0.04463805
-0.02855014 -0.22355236 0.09266117 0.11525778 -0.21893157 -0.022941029 -0.24298067 -0.1242345
0.16120967 0.29064247 -0.03168846 0.009026702 -0.007912963 0.009348593 -0.010926713 -0.16764471
0.08015747 0.107140094 -0.08029451 -0.028876487 0.19318488 -0.5884003 -0.10525993 -0.015290437
00000000: d76f c43e e4ad 403d 08d0 00bd 6390 5c3d
00000010: 8ac7 a3bc 4583 593e ad9c 233d 2ef9 08be
00000020: 1cb9 f7bd df7c 353d aef1 663c 9946 cebd
00000030: 8656 aabd 85a3 f63b 80ef 29be e7f5 a7bd
00000040: db63 c4be 9355 b53c d926 65be 5541 81be
00000050: 437c 22be 0d94 d8bd 0371 c43c a248 98bd
00000060: cc29 15be 3076 4b3d ae4b 6b3e 8a6c 7d3d
00000070: e25d 2abe 2f34 d4bd f198 fbbd 3f8a ecbc
00000080: 3348 a4bd b98f b9bd 4208 a5bd 0fa9 c2bd
00000090: 445c e53d 4ac0 c2bd 5c3d c5bd f696 853b
000000a0: b698 7dbd 7df2 973e 25e7 00be 95aa 39be
000000b0: 5063 83be 7842 323d 6226 4abe 40ca 39be
000000c0: f7a9 babc 426d 78be 6b50 9dbe 7da9 64bd
000000d0: 4e53 80bd 8f51 e1bd 4ccf df3c 4627 283d
000000e0: d3c9 b0bd 3149 0abe 9c96 363e a9c7 523d
000000f0: cf2e 8fbe 4f68 0a3d ef31 44bd cab8 203d
00000100: 4a84 2cbe f29a b2bc c695 1abe 6ff7 743d
00000110: c429 e7be c941 19be 3e13 3a3c 9c49 e6be
00000120: 9e3f 49bd 3860 1e3c d6b9 1b3c 8064 1e3e
00000130: 7519 6ebd 2451 693d 031f 2b3e 77b2 f0bc
00000140: 6aaf e3be c7b2 bc3d 974c 3a3e 0a2c c83d
00000150: d8fa 86be a81d 7b3b 2efe 7bbc 38b6 ec3d
00000160: 7060 373d 2090 1b3c 1de1 f0bd 8b51 123d
00000170: 7265 2f3c 93c9 a1bc bcb3 3a3e de9d 75be
00000180: 085e 69bc fb37 4abd 9d42 ccbd 601a c6bd
00000190: 01f1 83bd 81ac b4bd fef8 243c 63d6 363d
000001a0: fce1 e9bc e9ea 64be 24c5 bd3d 450c ec3d
000001b0: 992f 60be d3ee bbbc edcf 78be a86e febd
000001c0: 2614 253e 17cf 943e c2cb 01bd bbe4 133c
000001d0: 5fa5 01bc d72a 193c f505 33bc 0eab 2bbe
000001e0: 9a29 a43d 446c db3d 7371 a4bd 628e ecbc
000001f0: 42d2 453e 67a1 16bf 8592 d7bd be84 7abc

fc3.bias f4 [2]
0.1641686 -0.32178164
00000000: d01b 283e 90c0 a4be
