weights/checkpoint_critic.pth (torch, 26213 bytes, 5 tensors)

fcs1.weight f4 [64, 24]
0.465739 0.058322378 -0.023456864 0.09689243 -0.24550976 -0.22179675 0.01738233 -0.06458112
0.462689 0.25029084 0.10592413 -0.058370512 -0.3741579 -0.2629783 -0.02190137 -0.04590729
0.1619834 -0.12310706 -0.0044993856 -0.019852519 -0.2239703 -0.2987605 0.06456971 0.022258334
-0.049660474 -0.0012293158 -0.038126208 0.0064707496 0.29162863 -0.6438182 0.040264737 0.011689812
0.02512857 -0.11445797 0.008188706 -0.11467452 -0.057673287 -0.0049112705 -0.0141505925 0.07335121
0.032220695 -0.08056162 0.06122867 0.058170836 -0.48994467 0.6005395 -0.06987059 -0.13156644
0.26796755 0.66941345 -0.05868277 -0.13354862 -0.26659316 0.12080887 0.032560065 0.075062
0.1739198 0.52420515 0.009215961 -0.029510528 -0.21026479 0.0031530734 0.018137872 -0.048230294
0.5003144 0.5568689 0.02777253 0.30912164 -0.23998837 0.21301383 0.011101745 0.3088306
-0.036077667 -0.330917 0.030618466 -0.061578244 0.16411747 0.48797342 -0.037187196 0.08361735
0.037053637 -0.28556252 0.0131078325 0.0939502 -0.08662459 0.7048676 -0.015766213 -0.1041216
0.051382303 -0.44322577 -0.059357062 -0.24083528 0.077179596 -1.0092293 0.056145217 -0.10237342
0.049924877 -0.19408065 -0.02336483 0.05005671 0.430417 0.2152383 0.03109073 -0.06039346
-0.1433784 -0.17389606 0.089269884 0.05827958 0.039588027 -0.034389883 -0.074495114 0.21210968
0.041257378 -0.15296635 -0.07272357 -0.12954143 -0.47059777 -0.6194906 0.07737771 -0.20739578
-0.053534545 -0.22092547 -0.010390461 -0.016888866 -0.062153276 -0.056941494 0.03742943 -0.08357183
-0.06634372 -0.062571816 0.052458268 -0.14800395 0.24081598 -0.8022832 -0.028047483 -0.044717904
-0.14871866 -0.24489048 -0.021115739 -0.07881972 0.551738 -0.22988425 0.03365162 0.058431413
0.019710628 0.62209386 0.03520706 0.09603853 0.1833275 0.1187406 -0.013494193 -0.12072926
-0.04784224 0.39093703 -0.05556642 -0.08129762 -0.042630423 -1.3787547 0.03196969 -0.13610941
0.016156152 0.3723843 0.095719665 0.17253445 0.091795094 -1.9042145 -0.03306774 0.19371721
-0.025497736 -0.08507919 -0.0007436549 0.009849402 -0.12082993 0.74012834 -0.0021709397 0.013184499
0.07048651 -0.12127982 -0.03322979 0.07520159 0.010609295 0.52119344 0.032631766 -0.100398034
-0.019232864 -0.19275671 -0.0033282598 -0.031667214 0.13049231 -1.2087014 0.007209965 0.12393302
0.13360919 -0.13046367 0.0153770475 0.10272127 0.6714744 -0.29713887 -0.023431044 -0.05927246
0.0488224 -0.37955278 -0.005681591 -0.12161343 0.04167919 -0.30256444 -0.046289835 0.023177344
-0.0792713 -0.50058407 -0.05870554 0.034434907 -0.35036504 -0.5470741 -0.060258303 0.064299695
-0.046231825 0.6386545 0.09556668 0.027481405 0.25197914 0.08341784 -0.098970726 0.09227024
0.1014532 0.6720174 -0.016838541 0.08013329 0.53248006 -0.87845415 0.003678158 0.2798479
0.01956615 0.62507504 -0.03932064 0.22068076 -0.15929954 -0.6664793 0.014843336 0.26994875
0.07299538 0.07448103 0.0056406185 -0.035368286 -0.041301098 0.7180877 -0.0048316135 0.027640078
0.09983744 0.08885391 0.053123053 -0.112265415 -0.09487694 0.269686 -0.055282503 0.009894126
00000000: 5875 ee3e 72e3 6e3d 9c28 c0bc 8a6f c63d
00000010: e966 7bbe b01e 63be 6365 8e3c 1b43 84bd
00000020: 93e5 ec3e 1f26 803e c0ee d83d eb15 6fbd
00000030: a091 bfbe 17a5 86be 806a b3bc 4809 3cbd
00000040: fade 253e 8e1f fcbd 956f 93bb c0a1 a2bc
00000050: 7858 65be 23f7 98be 203d 843d 1c57 b63c
00000060: c868 4bbd fe20 a1ba 3a2a 1cbd 9508 d43b
00000070: 5950 953e 45d1 24bf a3ec 243d a086 3f3c
00000080: 6eda cd3c f168 eabd ec29 063c 7ada eabd
00000090: d33a 6cbd b9ee a0bb e3d7 67bc 2939 963d
000000a0: d9f9 033d 7efd a4bd eaca 7a3d 8b44 6e3d
000000b0: 07da fabe f5bc 193f 5018 8fbd 5ab9 06be
000000c0: 0b33 893e ae5e 2b3f 585d 70bd f8c0 08be
000000d0: e67e 88be a46a f73d b45d 053d 1bba 993d
000000e0: 0818 323e 4f32 063f 8bfe 163c 10c0 f1bc
000000f0: a74f 57be cba3 4e3b e095 943c 218d 45bd
00000100: 9b14 003f f68e 0e3f 3883 e33c 3145 9e3e
00000110: 83bf 75be 4c20 5a3e 18e4 353c 0b1f 9e3e
00000120: 2dc6 13bd f46d a9be 94d3 fa3c 7839 7cbd
00000130: 690e 283e a7d7 f93e 9a51 18bd 933f ab3d
00000140: 8ec5 173d 4035 92be 3cc2 563c f668 c03d
00000150: 3c68 b1bd 3472 343f 2528 81bc b53d d5bd
00000160: 4076 523d 7dee e2be 6420 73bd 869d 76be
00000170: 5610 9e3d 6d2e 81bf 87f8 653d 28a9 d1bd
00000180: 077e 4c3d 14bd 46be 9a67 bfbc 4408 4d3d
00000190: 9e5f dc3e 6e67 5c3e fdb1 fe3c 225f 77bd
000001a0: cad1 12be cf11 32be 21d3 b63d 92b6 6e3d
000001b0: 0e27 223d 68dc 0cbd e590 98bd 4833 593e
000001c0: 7ffd 283d 36a3 1cbe 18f0 94bd 82a6 04be
000001d0: 31f2 f0be f096 1ebf 3478 9e3d 8f5f 54be
000001e0: 0a47 5bbd 493a 62be c13c 2abc 855a 8abc
000001f0: 6f94 7ebd 7c3b 69bd 9a4f 193d b527 abbd
00000200: 37df 87bd a725 80bd 7bde 563d 598e 17be
00000210: 7798 763e 6f62 4dbf d6c3 e5bc 1f2a 37bd
00000220: b449 18be 92c4 7abe eafa acbc 3c6c a1bd
00000230: b43e 0d3f c766 6bbe 48d6 093d c755 6f3d
00000240: 2f78 a13c 8b41 1f3f 4735 103d d9af c43d
00000250: 34ba 3b3e 462e f33d bf16 5dbc e740 f7bd
00000260: 3af6 43bd e628 c83e 9d99 63bd 5e7f a6bd
00000270: 3d9d 2ebd 097b b0bf a6f2 023d 4460 0bbe
00000280: e859 843c 28a9 be3e ac08 c43d dfac 303e
00000290: 11ff bb3d 4dbd f3bf 0a72 07bd ce5d 463e
000002a0: a1e0 d0bc 003e aebd d6f1 42ba 635f 213c
000002b0: af75 f7bd 0d79 3d3f 5346 0ebb cc03 583c
000002c0: 3b5b 903d 8e61 f8bd f61b 08bd 4b03 9a3d
000002d0: 9cd2 2d3c ef6c 053f e3a8 053d 7c9d cdbd
000002e0: 3d8e 9dbc 0462 45be ef1e 5abb 7bb5 01bd
000002f0: c79f 053e bab6 9abf 9241 ec3b 98d0 fd3d
00000300: d9d0 083e 4598 05be 03f0 7b3c 875f d23d
00000310: bfe5 2b3f 9622 98be 76f2 bfbc aec7 72bd
00000320: fff9 473d be54 c2be a42c babb 7610 f9bd
00000330: ccb7 2a3d bae9 9abe 699a 3dbd 6ade bd3c
00000340: fe58 a2bd 4726 00bf 3875 70bd 9e0b 0d3d
00000350: 0c63 b3be 0c0d 0cbf 69d1 76bd 8faf 833d
00000360: 955d 3dbd dc7e 233f 77b8 c33d af20 e13c
00000370: 6903 813e f9d6 aa3d 2ab1 cabd 2ef8 bc3d
00000380: b2c6 cf3d 5509 2c3f fbf0 89bc ec1c a43d
00000390: 9d50 083f 5fe2 60bf 400d 713b 3948 8f3e
000003a0: 3149 a03c eb04 203f ae0e 21bd 23fa 613e
000003b0: 6b1f 23be 639e 2abf 7731 733c b936 8a3e
000003c0: 9a7e 953d 8389 983d f0d4 b83b 56de 10bd
000003d0: 572b 29bd 98d4 373f 8352 9ebb 726d e23c
000003e0: 9277 cc3d 0af9 b53d 8f97 593d 69eb e5bd
000003f0: d74e c2bd 4914 8a3e e86f 62bd f91a 223c

fcs1.bias f4 [64]
0.21252084 -1.2313287 0.21831533 -0.42665786 0.28115162 0.03783817 0.14830245 0.02086134
0.3615265 -0.07161459 0.0003718543 0.14342086 0.24675982 0.08133753 -0.95603 -0.20949392
-0.033476796 0.60410875 -0.36698148 -0.048467558 -0.19342917 -0.44153145 -0.28175405 -0.018209465
0.06413414 -0.42179018 -0.6191372 0.21294715 -0.109339386 -0.60531586 -0.43150392 0.15950939
0.14606155 -0.16866805 -0.19555166 -0.58549523 -0.31067878 -0.7272287 -0.12319792 -0.29681486
-0.83462715 -0.25095594 0.34478256 0.422596 -0.027294064 0.32737628 -0.053567734 -0.15456538
0.0408384 0.5399115 -0.22533888 0.26576588 -0.4116517 -0.48875672 -0.38438237 -0.44684643
-0.5143683 -0.66661054 -0.050323546 -0.8475023 0.24840608 0.031796075 -0.41367447 0.37945613
00000000: 109f 593e 2e9c 9dbf 0e8e 5f3e e672 dabe
00000010: 1bf3 8f3e 32fc 1a3d 99dc 173e 67e5 aa3c
00000020: 001a b93e acaa 92bd 70f5 c239 ebdc 123e
00000030: 9bae 7c3e 4a94 a63d 62be 74bf 9385 56be
00000040: f71e 09bd dfa6 1a3f ffe4 bbbe eb85 46bd
00000050: 4c12 46be 6910 e2be 1142 90be 042c 95bc
00000060: c358 833d e2f4 d7be c77f 1ebf d10e 5a3e
00000070: 54ed dfbd fbf5 1abf 15ee dcbe 6e56 233e
00000080: 2991 153e 51b7 2cbe b23e 48be 04e3 15bf
00000090: 4a11 9fbe a92b 3abf 314f fcbd 1ef8 97be
000000a0: 20aa 55bf 4c7d 80be 5787 b03e 815e d83e
000000b0: cd97 dfbc dd9d a73e d769 5bbd 6346 1ebe
000000c0: 2b46 273d a437 0a3f 3cbf 66be 7712 883e
000000d0: 03c4 d2be 523e fabe c4cd c4be 0ec9 e4be
000000e0: a4ad 03bf fda6 2abf 1020 4ebd e9f5 58bf
000000f0: 2a5e 7e3e 9a3c 023d 24cd d3be 1348 c23e

fc2.weight f4 [64, 66]
-0.10499689 0.36291367 0.07030154 -0.22639015 -0.47420755 0.17267181 0.23280276 -0.19151154
-0.096009485 0.07134389 -0.1160533 -0.026664251 -0.03614379 0.039096214 0.23934937 0.12034048
-0.046261624 -0.032169893 0.19992352 0.13568278 -0.027193572 -0.11959623 0.028788405 0.036878612
-0.24989276 -0.87292874 -0.17830843 -0.21642363 -0.22616008 0.079668045 0.0054340805 0.06359798
-0.043372065 0.012257009 0.026523253 0.060252305 -0.07301486 0.030064903 0.046999384 0.025870193
0.13133559 -0.03962673 0.00867385 -0.45055068 0.072598614 0.006604018 -0.0127505185 0.10442964
-0.058803692 0.05163594 -0.37812096 -0.13414201 -0.036321186 -1.2467979 0.11776612 -0.04218722
-0.07162996 0.10385073 -0.10098515 -0.1484225 -0.0060582743 0.10612793 0.07027116 0.090126544
-0.030313218 -0.20278592 0.05155498 -0.014626931 -0.034234013 -0.10957044 0.066245496 0.21210468
-0.029483566 -0.2020267 -0.004519055 -0.20571281 0.0645351 -0.038430456 0.29980665 -0.010131588
-0.0019623996 -0.8057555 0.05028314 0.05497062 -1.0550015 0.014643095 -0.03378012 0.060938828
0.09492446 -0.09129017 0.252871 0.031482622 0.029597081 -0.045206577 0.18552013 -0.013030942
-0.09716612 0.022576014 0.13969949 -0.31921342 0.058672488 0.109518714 -0.03592336 -0.05152759
-0.011841112 0.19772913 0.13738258 -0.048069663 -0.019401722 -0.17046796 -0.46523434 -0.12242294
-0.046310008 -0.38587058 0.018788056 -0.079357654 0.025728602 -0.043939218 0.12957738 -0.54000306
0.0443323 0.09466846 0.024910139 -0.69507533 0.054047264 -0.08875754 -0.49161395 -0.22289658
-0.13544272 -0.10781068 -0.46374646 0.013123487 0.0048798616 -0.41352308 -0.0690026 -0.26959416
-0.07314784 -0.1802877 0.06824259 -0.3006727 -0.10817576 -0.250188 -0.04888485 0.017585102
-0.29745275 -0.30934182 -0.38692996 -0.061393782 -0.23753761 -0.059684414 0.0076630684 -0.09894474
-0.03218548 -0.20553042 -0.1958842 0.088271104 -0.29017863 -0.06431956 0.03194964 -0.2284738
-0.24493137 -0.055505898 -0.10655751 0.018953359 0.024495373 -0.20330688 0.06810147 -0.071811035
-0.16228004 -0.027981717 -0.15252599 -0.13586721 0.22851515 -0.15479042 -0.01727075 0.007000248
-0.040696934 0.028384857 -0.12199883 -0.049849764 -0.5104007 -0.06539809 -0.11161517 -0.27386937
-0.024274234 -0.3432303 -0.0738449 0.08233434 -0.018190708 -0.04669314 -0.038156472 -0.12417395
-0.07383265 -0.22167602 -0.15189652 -0.1802438 -0.016904831 -0.5508054 0.0185484 0.1284613
-0.22629195 -0.0043682433 -0.07781731 0.35646617 0.019333271 -0.04784763 -0.07598101 -0.2762171
-0.04675483 0.021371016 0.23530948 -0.30635294 -0.11047873 0.24242783 -0.16898562 -0.10334211
-0.10943306 -0.17139155 -0.42238224 0.002900703 -0.015104189 0.2753355 -0.4264515 -0.7614938
-0.018300332 -0.08329414 -0.56845105 0.09792652 -0.22966883 0.12993638 -0.051554244 -0.026233222
0.034594048 0.5799196 -0.06916246 0.048243776 0.054008007 -0.24216297 -0.20957251 -0.027584285
-0.29163423 -0.055883415 0.037486706 0.14272745 0.02925687 -0.046105687 -0.09320214 -0.37243736
0.21538404 0.053119924 0.07407445 -0.019374017 0.04144429 0.07645547 -0.7102133 0.24126188
00000000: 9c08 d7bd d2cf b93e 41fa 8f3d d2d2 67be
00000010: 55cb f2be e1d0 303e d963 6e3e 9a1b 44be
00000020: 9fa0 c4bd bf1c 923d 5aad edbd fd6e dabc
00000030: 830b 14bd 5a23 203d 0018 753e 1275 f63d
00000040: d47c 3dbd 94c4 03bd c0b8 4c3e 6df0 0a3e
00000050: 0ec5 debc deee f4bd a9d5 eb3c 070e 173d
00000060: e3e3 7fbe 4278 5fbf 7c96 36be 289e 5dbe
00000070: 8296 67be 0029 a33d 5f10 b23b a83f 823d
00000080: e8a6 31bd 9fd1 483c 4b47 d93c 1fcb 763d
00000090: d188 95bd ac4a f63c 6d82 403d baed d33c
000000a0: d67c 063e a34f 22bd c41c 0e3c 94ae e6be
000000b0: 95ae 943d 8566 d83b 8de7 50bc 35df d53d
000000c0: 24dc 70bd 3580 533d 1299 c1be 865c 09be
000000d0: 86c5 14bd 1397 9fbf 5d2f f13d 82cc 2cbd
000000e0: bab2 92bd b1af d43d 4dd1 cebd 11fc 17be
000000f0: 7d84 c6bb 9a59 d93d 53ea 8f3d 4494 b83d
00000100: 6d53 f8bc 1da7 4fbe 512b 533d cca5 6fbc
00000110: f738 0cbd 7866 e0bd b8ab 873d f831 593e
00000120: 8587 f1bc 16e0 4ebe 9514 94bb 61a6 52be
00000130: fa2a 843d 4169 1dbd 4280 993e f6fe 25bc
00000140: 9a9b 00bb fe45 4ebf b2f5 4d3d df28 613d
00000150: 4a0a 87bf 98e9 6f3c 065d 0abd fe9a 793d
00000160: c167 c23d 57f6 babd 4f78 813e ecf3 003d
00000170: 9475 f23c 882a 39bd fdf8 3d3e bb7f 55bc
00000180: 08ff c6bd 55f1 b83c 620d 0f3e f16f a3be
00000190: 9052 703d 594b e03d 6024 13bd 980e 53bd
000001a0: 3901 42bc 8179 4a3e 05ae 0c3e b2e4 44bd
000001b0: 5cf0 9ebc 278f 2ebe 3233 eebe e1b8 fabd
000001c0: 90af 3dbd d490 c5be 69e9 993c 4486 a2bd
000001d0: cac4 d23c 9cf9 33bd efaf 043e a43d 0abf
000001e0: c995 353d 8ae1 c13d 5910 cc3c 75f0 31bf
000001f0: aa60 5d3d 83c6 b5bd d3b4 fbbe 003f 64be
00000200: 7fb1 0abe d9cb dcbd 2d70 edbe e503 573c
00000210: 3fe7 9f3b 4cb9 d3be 3c51 8dbd 3f08 8abe
00000220: 89ce 95bd 579d 38be c5c2 8b3d c6f1 99be
00000230: 418b ddbd a418 80be 7b3b 48bd a20e 903c
00000240: ba4b 98be 0d62 9ebe af1b c6be 0c78 7bbd
00000250: 0f3d 73be a577 74bd 7a1a fb3b 8aa3 cabd
00000260: ecd4 03bd 9176 52be de95 48be 7bc7 b43d
00000270: 4b92 94be f9b9 83bd a0dd 023d 09f5 69be
00000280: 4acf 7abe 275a 63bd d33a dabd 1344 9b3c
00000290: 85aa c83c ae2f 50be c978 8b3d aa11 93bd
000002a0: bd2c 26be ea39 e5bc c62f 1cbe c620 0bbe
000002b0: e0ff 693e 6181 1ebe 637b 8dbc 5662 e53b
000002c0: d4b1 26bd 5c87 e83c 86da f9bd 442f 4cbd
000002d0: 9fa9 02bf 6fef 85bd 7f96 e4bd 9b38 8cbe
000002e0: c2da c6bc e2bb afbe ff3b 97bd e89e a83d
000002f0: ae04 95bc 4e41 3fbd f649 1cbd e94e febd
00000300: 9335 97bd 0aff 62be c38a 1bbe d591 38be
00000310: 007c 8abc 9501 0dbf d0f2 973c 5c8b 033e
00000320: 14b9 67be 7b23 8fbb af5e 9fbd bc82 b63e
00000330: cf60 9e3c e0fb 43bd ef9b 9bbd 546c 8dbe
00000340: fe81 3fbd 4512 af3c f8f4 703e 4bda 9cbe
00000350: ac42 e2bd 003f 783e 910a 2dbe 07a5 d3bd
00000360: 711e e0bd 4481 2fbe 7c42 d8be b919 3e3b
00000370: 8f77 77bc c6f8 8c3e da57 dabe 42f1 42bf
00000380: 94ea 95bc 1e96 aabd 0286 11bf b38d c83d
00000390: 4e2e 6bbe 0b0e 053e 8b2a 53bd 0ee7 d6bc
000003a0: 7db2 0d3d 9c75 143f 0ca5 8dbd 449b 453d
000003b0: 8037 5d3d 92f9 77be 2d9a 56be 70f8 e1bc
000003c0: 1551 95be 02e6 64bd a98b 193d 2527 123e
000003d0: 1aac ef3c 51d9 3cbd c3e0 bebd 1cb0 bebe
000003e0: a28d 5c3e 4794 593d 58b4 973d 42b6 9ebc
000003f0: 7dc1 293d af94 9c3d 8ad0 35bf 5b0d 773e

fc2.bias f4 [64]
0.095132 0.10596265 -0.049359888 -0.2056571 0.23079062 -0.052734286 0.2806845 -0.014539246
0.16987573 0.33441132 -0.16246739 0.25873178 -0.13025516 0.27698138 0.051796608 0.38019967
0.110117294 0.07743645 0.033126 0.25306258 -0.12580295 -0.14993703 -0.123147964 -0.07933749
0.20023674 -0.14946996 0.0066134916 -0.12157783 -0.51977366 0.13314587 -0.06868994 -0.10199542
-0.1780176 0.21303363 -0.11068076 0.012935884 -0.09769273 -0.7063892 0.2462811 -0.08463596
-0.09086658 -0.3331656 0.028363954 0.12543987 -0.5772619 -0.03629507 -0.29521155 -0.6848044
-0.18214384 -0.3656418 0.11555326 -0.29947954 -0.1623646 0.19503789 -0.14667428 -0.1197922
-0.17694473 -0.13546312 0.20894888 0.35367224 0.0769851 0.026741859 0.13677467 0.36052302
00000000: 91d4 c23d f202 d93d 982d 4abd c697 52be
00000010: 6054 6c3e e8ff 57bd e1b5 8f3e 0536 6ebc
00000020: e7f3 2d3e f637 ab3e da5d 26be 7e78 843e
00000030: 9c61 05be 81d0 8d3e ae28 543d 88a9 c23e
00000040: 2d85 e13d 0097 9e3d 21af 073d 6b91 813e
00000050: 7dd2 00be 1889 19be 0035 fcbd b27b a2bd
00000060: dc0a 4d3e a70e 19be fdb5 d83b ccfd f8bd
00000070: e30f 05bf 6457 083e 50ad 8cbd fae2 d0bd
00000080: 3f4a 36be 7d25 5a3e 98ac e2bd 08f1 533c
00000090: 2013 c8bd ecd5 34bf 1d31 7c3e 9e55 adbd
000000a0: 4218 babd ae94 aabe 865b e83c 4f73 003e
000000b0: 70c7 13bf 24aa 14bd f825 97be 574f 2fbf
000000c0: ea83 3abe 6735 bbbe 30a7 ec3d 6255 99be
000000d0: e842 26be 03b8 473e c831 16be 9d55 f5bd
000000e0: 0031 35be d8b6 0abe b2f6 553e 8714 b53e
000000f0: 5daa 9d3d be11 db3c a90e 0c3e 7996 b83e

fc3.weight f4 [1, 64]
-0.017015122 -0.019422758 0.012520609 -0.024266524 0.027409524 -0.020282157 0.044758487 0.015616359
-0.007094 -0.01734146 -0.08074908 0.059271805 -0.0034705289 -0.013532095 0.06622615 -0.014869578
-0.024431117 0.032623 0.015540617 0.05779367 -0.0179737 -0.022562604 0.03159544 0.00777125
-0.016089939 -0.1447794 -0.0534838 -0.0020031321 -0.039755333 0.12307554 0.026714468 -0.033876427
0.052354783 -0.016958825 -0.067261495 -0.015584602 -0.01724756 -0.032919742 0.009779184 0.05128121
-0.009262279 -0.011883236 -0.027340079 -0.033358537 -0.059225466 -0.04321181 -0.004705199 0.020317556
-0.09862313 -0.018757418 0.044232324 -0.026160726 0.017644169 0.0154539915 0.017452061 -0.02935892
0.004065909 0.014477935 0.05571366 -0.020109447 -0.0209401 -0.056403328 0.023810044 0.020410927
00000000: 4c63 8bbc 7a1c 9fbc 3e23 4d3c 97ca c6bc
00000010: f089 e03c c426 a6bc ad54 373d c2db 7f3c
00000020: c974 e8bb ad0f 8ebc c65f a5bd fec6 723d
00000030: d071 63bb b8b5 5dbc 93a1 873d 889f 73bc
00000040: c423 c8bc b29f 053d 129e 7e3c 0eb9 6c3d
00000050: 953d 93bc 36d5 b8bc 386a 013d f8a5 fe3b
00000060: 0ccf 83bc 0d41 14be d411 5bbd fb46 03bb
00000070: 7dd6 22bd 070f fc3d 4dd8 da3c 02c2 0abd
00000080: f871 563d 3ced 8abc 65c0 89bd 8f56 7fbc
00000090: c14a 8dbc dad6 06bd df38 203c 3f0c 523d
000000a0: d0c0 17bc e7b1 42bc 4df8 dfbc f6a2 08bd
000000b0: 6796 72bd defe 30bd 122e 9abb 0171 a63c
000000c0: ecfa c9bd 28a9 99bc f42c 353d 054f d6bc
000000d0: 818a 903c bd32 7d3c a0f7 8e3c 1e82 f0bc
000000e0: 513b 853b dc34 6d3c 0234 643d 91bc a4bc
000000f0: 938a abbc 2d07 67bd 480d c33c d134 a73c
